pytorch_tutorials/cifar_net.pth (torch_old, 249582 bytes, 10 tensors)

conv1.weight f4 [6, 3, 5, 5]
00000000: 260c c7bd d44e 7f3e e409 633e 31b9 663e
00000010: 37d8 efbd d073 2cbe 3ad2 2abb 18e8 b03e
00000020: 50e4 563e 10e8 d3bd 3a62 cfbd a667 a3bd
00000030: c118 45be 0b25 88be f21f 04be 096d eebd
00000040: 77eb eebe 9140 03bf f9ca 92be a3b5 7ebe
00000050: e520 a2bd 2516 90be f2c5 b4be 41ff 6cbe
00000060: f6cb 28be 6360 f5bd 6fe3 093e 0598 f73d
00000070: 2049 f0bc 6608 6fbe cf44 03be e976 ebbb
00000080: 8c8e 5b3e 6f24 09bd 0145 1bbe 36d4 f5bc
00000090: 0aa5 913c c047 98bd 808a 01bd 6030 da3c
000000a0: 5762 223e 0d13 5fbe eb48 6cbe 376b 82be
000000b0: 2ed5 053e 21d5 8e3e f01c 4e3d 4e52 193c
000000c0: d5ea ec3d 7944 463e afe0 8cbe f3f9 ffbd
000000d0: 8233 813c 76cd 04be fa0e 753b 851c f33b
000000e0: 5e19 133e 272a 6a3e 7079 cf3d 8e1e 63bc
000000f0: abee b73d 40a9 fe3c 8c84 dabc c672 42bc
00000100: 6fcd 5d3e 519c bc3d 9b04 0bbe 88e0 85be
00000110: c30e 15be 40b4 e03d 2da7 be3e 2e84 fc3c
00000120: aff3 153e aa96 753e c54a b63d aa15 1b3e
00000130: 7f66 fa3d 4979 5e3e f0fe 453e e344 893d
00000140: 1d7b 8a3d e73e 3e3c 24aa eb3b 5dcc 903e
00000150: 584c 783d a5f1 483e 37c2 b4be 27c9 dcbd
00000160: 84e3 483e 9d74 2b3e b71f 553e ed1d bebe
00000170: 0581 f4bd c561 483e 1b9d 953e edd8 193e
00000180: 28e9 f8be bf86 88be af57 463d 38f0 003e
00000190: 7bd9 55be 0ecb 08be 15b1 87be 0600 22be
000001a0: 03fe 43be 9c2f 5abd 5a67 c7be 8eba 0cbe
000001b0: 6fb5 353e a12a 8cbd b221 fb3b 92da 04bf
000001c0: 3eec dcbd 1d0c 183e 1c4e 4a3e 24e9 4e3e
000001d0: b75b 12bf 2aea 73be bf30 633e b13f 3c3e
000001e0: be38 873e b932 babe ff79 b3be d9dc 3d3e
000001f0: da9f bb3e af0b 0fbe 3b1a 11bc 3983 a6bd
00000200: 772b 073e 4944 9b3c 6d8c 2b3d 43f0 6dbe
00000210: 933a a1bd 1b9a 123e d521 1c3c 68ba d23b
00000220: 90a0 e9be 0c04 fabb 26a8 733e 2b7f 803e
00000230: 68e1 1f3e 9154 ffbe 1c72 0dbe 8472 b33e
00000240: 6cb7 823e c4ee 3c3e 2767 16be 693a 34be
00000250: e946 463e c41e b63e 527f 053d d045 9b3e
00000260: f5d3 873e 426a 5d3e 20c8 b63d 2796 083e
00000270: 6bba b43c b3f8 23bd 1d82 06be 3ccc f6bc
00000280: 4c33 23be 3750 0fbf 3a96 0bbf 1119 0ebf
00000290: f391 a8be b190 e43c f7e6 783d 7b8b 303e
000002a0: 8ad2 5b3e c853 913d 5d1d 8a3d d100 8b3e
000002b0: bc68 713e 04d0 eb3d d085 ec3d 6d05 3f3d
000002c0: 774c 903e 0992 b43e fea5 223e fc1c 3bbc
000002d0: 2b98 3dbd 31c5 533e 01ff 143e f79b 12ba
000002e0: b0ee 52be 2815 9ebe 8441 02bf c9c4 2bbf
000002f0: 384f 07bf a690 7bbe 2aa4 b4bd 05f8 c43d
00000300: 5377 f33d 8be7 2f3e 92d4 973d 4b6e a3bd
00000310: 68c5 6d3e a316 223e 2d69 bf3d cc6b d53c
00000320: dcb6 f7bd 0df2 c83d 358f 8e3e 174c f73d
00000330: 2716 ab3b 9da2 dc3c 6554 183e 4a87 993d
00000340: 809b 8e3d 81f4 003c 2087 5abe 9cdd cbbe
00000350: c69e f9be 53e2 c7be 35dc c9bd e597 1abd
00000360: a51f 233e 78de 0f3e fe5c c53d acdb 6b3e
00000370: 57ff cd3b b6b4 313e 2c65 0a3e 8a01 2b3e
00000380: 5ed2 32bd 1318 bdbd c007 5dbd 1319 c2bb
00000390: e3c8 0a3d c3ff cebd 036a babd 4156 90be
000003a0: 28f0 7bbe 6c34 58be 6979 82bd 9175 97be
000003b0: 16bc 55be 4881 a4be b50d c5bd fbfe c4bd
000003c0: f6df 2fbe ccff 87be 7466 0ebe 798c 76bd
000003d0: e174 7fbd 8917 89be ad43 02be 2581 56be
000003e0: d5ac fbba 3528 09be 9621 513c 89c8 bb3d
000003f0: 83af 213c 8d02 473d 9728 1ebd 06d3 38bb
-0.09719114 0.24932414 0.22171742 0.22531582 -0.117111616 -0.16841054 -0.0026065246 0.34552073
0.20985532 -0.10346997 -0.10126157 -0.07978754 -0.19247724 -0.26590762 -0.12902811 -0.116418906
-0.4666402 -0.51270396 -0.2867048 -0.24873976 -0.079164304 -0.28141895 -0.3530727 -0.23144247
-0.16484055 -0.11981275 0.13465665 0.12089542 -0.029331744 -0.23343047 -0.12819217 -0.007185806
0.21441096 -0.03348201 -0.15163042 -0.030008417 0.017778892 -0.0743556 -0.031626225 0.026634395
0.15857826 -0.21784611 -0.23074691 -0.25472423 0.13069603 0.2789698 0.050320566 0.009358002
0.11568228 0.19362058 -0.2751517 -0.12498846 0.015771631 -0.12969002 0.003739296 0.0074191713
0.14365146 0.22867642 0.10130584 -0.013862265 0.08981069 0.031086564 -0.026674531 -0.011868184
0.21660398 0.092095025 -0.13575976 -0.26147866 -0.14556412 0.1097188 0.3723692 0.030824747
0.14643739 0.23983255 0.0890098 0.15144983 0.12226581 0.21725954 0.19335532 0.06702592
0.06761763 0.011611677 0.007191913 0.28280917 0.060619682 0.1962343 -0.35304424 -0.10780554
0.1961804 0.16743703 0.2081288 -0.37132207 -0.11938671 0.19568546 0.29221424 0.15024157
-0.48615384 -0.26665303 0.048423465 0.12591636 -0.20883743 -0.13358709 -0.2650229 -0.15820321
-0.19139867 -0.05326806 -0.38946038 -0.1374304 0.17744993 -0.06844068 0.007663929 -0.5189601
-0.10787247 0.14848371 0.19756359 0.20206124 -0.57171196 -0.23819795 0.22186564 0.18383671
0.26410478 -0.36366823 -0.35054013 0.18541278 0.36645395 -0.139693 -0.0088563515 -0.081304975
0.13200174 0.01895346 0.041881967 -0.23236184 -0.078725 0.14316599 0.009529551 0.0064309128
-0.45630312 -0.007629877 0.23794612 0.2509702 0.1561333 -0.49869207 -0.1381306 0.35048306
0.25530565 0.18450457 -0.14687787 -0.17600407 0.19362988 0.35570347 0.032592125 0.303267
0.26528898 0.21622565 0.089248896 0.13338529 0.022061547 -0.0400321 -0.13135572 -0.030126683
-0.15937537 -0.55981773 -0.545261 -0.55507 -0.3292385 0.027901025 0.06076714 0.17240708
0.21467033 0.07096058 0.06743882 0.2714906 0.23575109 0.11514285 0.1154896 0.046636034
0.28183338 0.35267666 0.15883633 -0.011420485 -0.046287697 0.20680691 0.14550401 -0.00055926986
-0.20598865 -0.30875516 -0.5088122 -0.67097145 -0.52855253 -0.24566898 -0.08820374 0.096176185
0.11887994 0.1717817 0.074135914 -0.07980021 0.23219836 0.15828948 0.093462326 0.026052378
-0.120954245 0.098117925 0.27843633 0.1207506 0.0052211466 0.026933009 0.14875944 0.074965075
0.06963253 0.007870794 -0.21340609 -0.39817512 -0.48753947 -0.3903986 -0.09856454 -0.037742514
0.1593004 0.14049709 0.096368775 0.23033017 0.0062865424 0.17354092 0.13515157 0.16699806
-0.043657653 -0.092331074 -0.05396247 -0.0059233992 0.033882987 -0.101073764 -0.091022514 -0.28190807
-0.24603331 -0.21113747 -0.063708134 -0.29581884 -0.2087253 -0.32129884 -0.09621755 -0.09618946
-0.17175278 -0.26562345 -0.1390627 -0.06019256 -0.062367324 -0.26775768 -0.12721129 -0.20947702
-0.0019201288 -0.13394244 0.012764355 0.091691084 0.009868505 0.048586417 -0.03861293 -0.0028201952

conv1.bias f4 [6]
00000000: 2938 5bbe 0e85 0cbe 6190 6dbe 3f25 c53e
00000010: e6a2 1dbf a455 423e
-0.21408142 -0.13722631 -0.23199607 0.3850498 -0.6157669 0.18977982

conv2.weight f4 [16, 6, 5, 5]
00000000: fe4c 32be 18e8 31be 42f7 8cbc 0163 f43b
00000010: ce06 143e 4481 1ebe dd16 aabc 62ed 70bd
00000020: d39d a7bd f21b 963d 8f51 0cbe b7de 71be
00000030: 8640 07be 54cb 3a3e c6f4 173e 849f 23be
00000040: 76d3 97ba 4de8 253e 2a51 6abc 102f 38bd
00000050: 3b08 103d 15a9 153d f273 aabd 8870 c1bc
00000060: 2a22 263e 6a26 e0bd 1419 07be c2f8 f7bd
00000070: e46a c23d eba1 4bbd 701f 6bbe 2f79 1fbd
00000080: b568 38be 89d9 bebc 5104 663d ab72 17be
00000090: d713 04be 6f81 93be 7c2b bd3d ef1f 553e
000000a0: 8da0 b6bd 4374 71be 5696 0dbd 04d7 beba
000000b0: 32d4 3b3c 8845 6bbe 586f bfbd b2cf c93c
000000c0: 37ac 8dbd c948 dabd 20c2 e7bc 7356 c5bc
000000d0: 3876 713c 88c2 1dbd 88d3 543c c417 8e3a
000000e0: c4a4 bc3d 0913 e63d c866 67bd 2a61 ed3d
000000f0: fec2 ecbc b6ad bd3c c602 803c 38ae 943d
00000100: 6775 383d 1263 b83c eb45 84bb 2de5 aa3d
00000110: fd22 d5bc 0289 2d3c 5d24 713c 6ae3 483e
00000120: 7bff 983d 88f0 4dbe 31c0 363d 997c adbd
00000130: 253d 04bc 4e6a abbc a365 12bd f5c1 a1bd
00000140: 6d7c dcbd ecd4 87bd c07d a93c a929 91bc
00000150: a45f a3bd 7527 ccbd ec34 03be d7ed d9bd
00000160: eb8c 45bc a26f 14be e7d7 03be f22c a6bd
00000170: 2946 24be ea22 00be ad01 8fbd 826c 88be
00000180: dc8e 34be d89c 09be a8ea 53be 0a31 16be
00000190: 6b73 5c3d 588b 593c 5457 59bd e285 95bd
000001a0: 0368 983c 0ea4 cabd 2a5f a1bd f7a2 19be
000001b0: c49b 67bd 3367 f03c 90c1 2ebe 6026 9abd
000001c0: 3ad8 88bd a6be fd3d cffa c73d ac59 9a3c
000001d0: ca72 76bd 2994 a43d 4bd2 dd3c efce 413d
000001e0: bd62 febd 1dbf 16be c15c 16be 4d94 acbd
000001f0: db5c 0bbd c5f5 7a3e 09cf 583e c762 32ba
00000200: 10b1 f8ba 5e59 f6bd 4567 3a3e 6d8c 273e
00000210: 09a8 c73d f13e 06bd f56a 203c da4d cc3c
00000220: 44cb 623e 10ea e3bd 4ef8 eabc 2786 133c
00000230: 7b0a 243e 3414 973d 8a76 c2bd 9d07 823e
00000240: b8e6 133c 07af bf3c cb82 9f3d ba3f 673e
00000250: e6b2 683d 5181 61bd 9c20 0dbd f49a c7bb
00000260: a521 ee3b d686 21bd e133 3dbd 4fe1 5ebd
00000270: 08af 8fbd fbb0 0f3b be45 ae3d e899 b6bc
00000280: b25e ffbd 8a8f cb3c 2566 c9bd 295b 003d
00000290: e0bd 3d3d 69f2 b5bc 16ac 4abd d00e 06be
000002a0: 0933 6cbd b97a 883d 2d9b 5e3d bcc8 4cbd
000002b0: 3781 2a3d ddf0 8f3d 59a8 5c3d bb81 57be
000002c0: 1c32 14be 826e 92be 4791 55be f99a 8dbd
000002d0: e229 66be f3c7 9dbe 5b26 8ebe 4b78 51be
000002e0: cf80 e0bd b69f d9bd 2d00 5abe fdcf b9bd
000002f0: ce73 5fbe 7241 4fbe f604 4b3d 1dc0 b3bd
00000300: 33fd 23be 65db 0bbe 2fb9 45be 1ab1 ca3c
00000310: 17c7 0ebe a7e8 b8bd 11ef d0bd c5ba dbbd
00000320: a587 853d f8e7 ea3b f365 ba3d 925b ac3d
00000330: 145f aa3d da77 3f3e f2da 4c3e b0a2 2a3e
00000340: b716 ee3d 4ca9 253e 7406 2d3e 326a 0d3e
00000350: 8d7a 803d d5f2 ac3c 357c dd3d a328 c13d
00000360: 1c25 ff3b f00d 713b bbe3 263d deff 0e3e
00000370: 1db3 053d 77da 2fbd d5c1 b1b9 a82d 2fbd
00000380: dcf4 8ebd d343 333e b193 2d3e f1ad c93d
00000390: f4ab 5d3e 0b3c 623e 5621 a63d bb28 bfbd
000003a0: 4c8f d6bc 48f0 f6bb 37af 9a3d a217 843d
000003b0: adca 92bc c157 a0bd c565 e4bd 0e5d 59bd
000003c0: b21c ce3d e57b 6bbd e3ad d23b fee5 babd
000003d0: a964 ea3d bd36 123e dd91 0c3e 69e6 d93d
000003e0: 7ff8 b53b bbcd a83d e963 5f3b c4f7 88bc
000003f0: 219a dfbd 0d03 9cbc 9abe b93d 16f1 02bc
-0.17412183 -0.17373693 -0.017207745 0.0074580912 0.14455721 -0.15478998 -0.020762855 -0.058820136
-0.081843995 0.07329549 -0.13702987 -0.23620115 -0.13208207 0.18241626 0.14839467 -0.15978819
-0.0011583406 0.16201897 -0.014301578 -0.044966757 0.0351641 0.036538202 -0.08322896 -0.02361323
0.1622397 -0.10944827 -0.1319316 -0.12107994 0.09493044 -0.049714964 -0.22961211 -0.03893393
-0.18008693 -0.023297088 0.05615646 -0.14789836 -0.12898193 -0.28809687 0.092368096 0.20812963
-0.089173414 -0.23579507 -0.0345672 -0.0014559929 0.0114641655 -0.22975743 -0.09347409 0.02463517
-0.06917613 -0.10658414 -0.028290808 -0.024089074 0.014737658 -0.038515598 0.012989886 0.0010840823
0.09211114 0.112340994 -0.056494504 0.11590798 -0.028901573 0.02315412 0.015626322 0.07259792
0.04503384 0.022508178 -0.004036655 0.08344493 -0.02601766 0.010591747 0.014718142 0.19618002
0.07470604 -0.20111287 0.04461688 -0.08471031 -0.008071219 -0.020924713 -0.03574146 -0.078983225
-0.1076592 -0.066324085 0.020689845 -0.01772006 -0.079772264 -0.09968463 -0.12813157 -0.106410675
-0.012057523 -0.1449571 -0.12875329 -0.081140414 -0.16042389 -0.12513319 -0.069827415 -0.26645285
-0.17632622 -0.13438737 -0.20694983 -0.14667144 0.05382101 0.013277851 -0.0530618 -0.07300927
0.018604284 -0.09894572 -0.07879479 -0.15003572 -0.056545034 0.029346084 -0.17066026 -0.07526851
-0.06681867 0.12389879 0.09764635 0.018841587 -0.060168065 0.08036072 0.027077815 0.047316488
-0.124211766 -0.14721341 -0.1468382 -0.08426724 -0.0340241 0.24507816 0.21172728 -0.000680488
-0.0018973667 -0.12028764 0.18203457 0.16362162 0.09748847 -0.03277487 0.009791126 0.024939466
0.22147852 -0.11128628 -0.028682854 0.009004152 0.16019623 0.073769 -0.09495266 0.25396433
0.009027176 0.02339889 0.07788619 0.22582904 0.056811236 -0.055054966 -0.034454927 -0.00609147
0.0072671943 -0.03943523 -0.046192054 -0.05441409 -0.070158064 0.0021925557 0.08509396 -0.022290185
-0.124692336 0.024848718 -0.09833936 0.031336937 0.046323657 -0.022210317 -0.04948052 -0.13091588
-0.05766586 0.066640325 0.054347206 -0.049996123 0.041627135 0.07028363 0.053871486 -0.21045582
-0.1447224 -0.28599936 -0.208562 -0.06914324 -0.22476915 -0.30816612 -0.27763638 -0.20456044
-0.10962068 -0.106261656 -0.2128913 -0.09072874 -0.2182152 -0.20239809 0.049565278 -0.08776877
-0.16014557 -0.13657911 -0.19308923 0.024742652 -0.13943134 -0.0902875 -0.10201848 -0.10728983
0.06520013 0.007168766 0.091014765 0.08415903 0.08318916 0.18698063 0.20005396 0.16663623
0.11625426 0.16177863 0.16896993 0.13810042 0.06273375 0.021111885 0.10814706 0.09431579
0.007786406 0.003678199 0.040744524 0.13964793 0.03264152 -0.042932954 -0.00033904487 -0.04276815
-0.06980297 0.17506342 0.16950871 0.0984763 0.21647626 0.22093217 0.08111827 -0.093339406
-0.026191376 -0.007535968 0.07552951 0.0644982 -0.017918909 -0.07829238 -0.111522235 -0.05306726
0.10064067 -0.057491202 0.0064294203 -0.09125899 0.11444981 0.14278693 0.13727517 0.106396504
0.0055533047 0.08242365 0.003408665 -0.016719706 -0.1091807 -0.019044423 0.090695575 -0.00799205

conv2.bias f4 [16]
00000000: 6c8d 093f 445f cb3d 540b 643e 3b67 8b3d
00000010: 7c72 433f d0c9 a13e b09d 85be 28f0 9dbd
00000020: 77ba 0abf d7eb 95bd 8ff4 473f d524 44be
00000030: 7c8c b03d b466 17be 22f8 95be b3ff dcbe
0.5373142 0.0993028 0.22269946 0.06806799 0.76346564 0.31599283 -0.2609687 -0.07711822
-0.5419077 -0.073203735 0.7810754 -0.19154675 0.08620545 -0.14785272 -0.29290873 -0.43163833

fc1.weight f4 [120, 400]
00000000: 3df4 193d f806 183b d8e9 7a3d a392 583d
00000010: 6f71 3c3d 90f6 fabc 0d0c 363d 4cf2 4a3d
00000020: db3a be3c a560 5a3c 84bb 1a3d 3947 9abc
00000030: aa73 c3bc 79b3 eaba 6588 68ba fd27 a63c
00000040: a977 25bd efed debb aa2e 133d 50e8 c5bc
00000050: d1b6 893c 5892 9bbc ab6c 3339 c27e 423d
00000060: 0462 493d 77a8 1cbd beb2 82bc 3941 803a
00000070: 4dc6 433d 1efe 263d 6cd9 183d 3e30 26bc
00000080: 402d 2d3d 0c79 dd3c 2f6f 083b 07c7 21bc
00000090: 104e 7ebd a840 81bc 6974 b7bc 1e58 693b
000000a0: 26f1 0a3d 2b0d 80bc 6d4f 0d3d 8533 b1bc
000000b0: 2f2e 83bc 243d f93c 64ca 8fbc 16a2 0f3d
000000c0: d399 5c3d a12f 08bc 9f84 063c 87b0 c43c
000000d0: ccf8 6f3c 6ad5 0bbd ecea fd3c b8a1 38bd
000000e0: 61d5 2b3d a82c e7bc 780a 453d 3c40 f5bc
000000f0: 680d 71bc 32ab 7bbc 5cfe 003d 220e cdbc
00000100: 6b89 fd3a 6a83 963c 1498 f33c 0352 39bd
00000110: 80df 203c c419 f23c 3e9b 1dbd e5c7 c1bc
00000120: d224 0dbd 19fd c9bc 755c 8cbc 799c 913c
00000130: 87f5 a13c e7f9 41bd 891a 17bd 77ea a63c
00000140: 314c 353d 8c83 e93c da00 8bb9 8b97 df3c
00000150: c92f 31bb 584c 173d 3d50 3abd f760 263d
00000160: f245 583b 14ab 14bd d350 a0bc 2775 343c
00000170: 4ba3 2cbd dc0b 413b a5a7 c5bc 7ffb 9a3c
00000180: 813c 9d3c 23d2 393c 1aad 1bbd cab8 353c
00000190: 3eea b73c ddc2 11bd dc07 b63c 84e7 dcbc
000001a0: 0609 cbbb ba0e 2f3d 2dbf 923c 78e1 11bc
000001b0: e9d7 293d f6f0 a93c 6aa3 f2bc c81c c5bc
000001c0: 0210 c6bc 639c e639 0ac5 193d f3ab 29bc
000001d0: 2ce1 463d b2d6 5ebc f570 dbbc efce 7c3d
000001e0: 65bf 13bd cccc d6bb aef9 74bd d3a1 68bb
000001f0: 375d 913c 9f36 54bd 2d91 13ba 45e8 f33c
00000200: c706 3e3a c6b5 60bd 6e4a 27bd 2b84 e83c
00000210: 8bcc 7dbc a89a 19bd b4f0 1d3c 5cf2 8bbc
00000220: eb12 533c 1c8f 523b 65de a8bb fe78 8b3d
00000230: 054f 023d 9108 71bd f012 44bc d98b 703b
00000240: aa2a a33b 2b09 11bc b7cc f9bb 375a ccbc
00000250: 52f7 b9bc 2c24 fd3c 551d 4bbd 2428 023d
00000260: 1d6c 69bd 0824 b83c 94fc 64ba 3c6f 23bd
00000270: fb53 613c 3c40 21bd 2354 b6bc e256 91bc
00000280: 7743 1c3d 37b7 8d3d e2a4 333d fd81 873b
00000290: f6fd 00bd 8702 4d3d 7d8f 163d a3c0 89bd
000002a0: dfac a2bc b5a2 46bc 759d 40bc 2969 d13c
000002b0: 7345 1fbd 0f33 7bbc 8e14 e03c 6efe a23b
000002c0: c855 b73c 7779 81bb b97f 223b fc77 cb3b
000002d0: 0f03 4e3d 29b4 57bb 99fe debc 09a4 283c
000002e0: e36c e53c e03b 3c3b a339 c2bc bc88 953c
000002f0: ba8c 983c 4a23 3c3d e049 273c e15f 11bd
00000300: 5819 f03c 1d5f cc3c 1854 aebc 337b b13c
00000310: c9a6 20bd 5e81 33bd 5cb5 f53b d5e8 32bd
00000320: 377e de3c 63d1 3a3b a681 fe3c b66c f63c
00000330: 33ee 083d bb78 0dbb beac af3c 63a4 2fbd
00000340: eecc 1bbd 5ee0 df3a 7c37 e43c ec26 80bc
00000350: 2dcd 083d d12d 9e3c d440 aebc b2a4 bc3a
00000360: ab20 343d 24ab 2c3d 521e 433c 9a30 0b3d
00000370: eca0 3abd 738b b43c f22c 12bd 5e1a bf3c
00000380: d1b7 313c 57bf 133d df85 b63c 2f68 98bd
00000390: ff88 06bd c259 f9bc d2d1 2bbc 8ce3 42bd
000003a0: 0b10 b03c e2b1 8f3c 48b0 003d 7459 23bd
000003b0: b5c9 a1bc 6adf 1e3d d5ec 04bd 216a 81bc
000003c0: 97f9 ad3c 0c40 fd3b 495c 7dbb a96a eb3c
000003d0: 9faa 16bd 521f 283d 28fe 1ebd 56dc 413d
000003e0: e71d 933b e30e 68bd 2e82 653c beaa 2abd
000003f0: db95 fdbc 16a6 35bb d74f 963c b834 f23c
0.03758644 0.0023197513 0.061258167 0.05287422 0.046006616 -0.030635148 0.044445086 0.04954748
0.023221424 0.013328706 0.037776485 -0.01883279 -0.023858864 -0.001790627 -0.0008870422 0.02028274
-0.04039732 -0.0068032662 0.035933174 -0.024158627 0.016810806 -0.01899068 0.00017111252 0.047484167
0.04916574 -0.038246598 -0.015954372 0.0009785063 0.047796536 0.04076969 0.037316725 -0.010143338
0.042279482 0.027035259 0.0020818224 -0.009874112 -0.062086165 -0.0157779 -0.022394376 0.00356055
0.033921383 -0.015631279 0.034499574 -0.021631012 -0.016013233 0.030424662 -0.017552562 0.035066687
0.053857636 -0.008312137 0.00821033 0.024009956 0.01464672 -0.034139074 0.030995809 -0.045076102
0.04195154 -0.028219536 0.048105687 -0.029937856 -0.014712669 -0.01536064 0.031492576 -0.025031153
0.0019343322 0.01837321 0.029735602 -0.045244228 0.009818912 0.029553302 -0.03847813 -0.023654887
-0.034458943 -0.02465682 -0.01713393 0.017774807 0.019770397 -0.047357466 -0.03689054 0.020375473
0.044262115 0.02850511 -0.0002651278 0.027293941 -0.0027036539 0.03693804 -0.045486677 0.040619817
0.0033000675 -0.036295965 -0.01956979 0.011014259 -0.042147916 0.0029456532 -0.02412779 0.01891875
0.01919389 0.011341604 -0.03800688 0.01109142 0.022450563 -0.035586227 0.022220545 -0.026965864
-0.006196144 0.042738654 0.017913425 -0.008903854 0.041465674 0.020744782 -0.029618938 -0.024061576
-0.024177555 0.00043985536 0.037541427 -0.010355937 0.048554584 -0.013600992 -0.02678726 0.061720785
-0.0360712 -0.0065551754 -0.059808426 -0.0035496845 0.017744644 -0.051809903 -0.0005629238 0.02977384
0.00072489347 -0.054860853 -0.040842466 0.028383335 -0.015490661 -0.037501007 0.009639908 -0.01708334
0.012882928 0.0032128757 -0.0051534646 0.06810187 0.03181364 -0.05884606 -0.011967406 0.003670445
0.004979451 -0.0088522835 -0.007623281 -0.024945362 -0.02270094 0.030901037 -0.04958852 0.031776562
-0.05698787 0.022478119 -0.0008735147 -0.039901003 0.013752933 -0.0393679 -0.022256916 -0.017741624
0.038150277 0.06919711 0.043858416 0.004135369 -0.031492196 0.05005124 0.036757935 -0.06726196
-0.019857822 -0.012123753 -0.011756291 0.02556284 -0.03888459 -0.015331998 0.027353551 0.004974178
0.02237977 -0.0039512473 0.0024795367 0.0062093716 0.050295886 -0.003291378 -0.027221011 0.010293015
0.028006023 0.0028722212 -0.023709124 0.018253677 0.018621791 0.04593209 0.010210484 -0.035491828
0.02930896 0.024947697 -0.021280333 0.021665191 -0.03922156 -0.043824546 0.0074984264 -0.043679077
0.027159793 0.0028506152 0.03106768 0.030081134 0.03343029 -0.0021586854 0.021444675 -0.04288138
-0.038037233 0.0017080416 0.027858488 -0.01564356 0.033398796 0.019308956 -0.021271147 0.0014392345
0.043976467 0.0421554 0.011909084 0.033981897 -0.045563623 0.02203915 -0.035687394 0.023328003
0.010847048 0.036071148 0.022280632 -0.074417464 -0.032845493 -0.030438308 -0.010487037 -0.047580287
0.021492025 0.017540876 0.031418115 -0.03988023 -0.019749502 0.038787283 -0.032452423 -0.015797677
0.021237178 0.0077285822 -0.0038659743 0.028737383 -0.03678381 0.041045494 -0.0388166 0.04732927
0.0044896486 -0.056654822 0.014008088 -0.04166674 -0.030955246 -0.0027717403 0.018348617 0.029566154

fc1.bias f4 [120]
00000000: e114 eebb a173 133d 1e94 583d 28cd 303e
00000010: 4304 b53d 20f8 e1bd 756d 7bbd 7243 24bd
00000020: d8d7 4ebd 052c 11bd 98e3 883d c2e1 ff3d
00000030: 3df1 8cbc d483 ea3d aada 8dbc afaf 4f3d
00000040: 19c7 66bd 4a72 4e3e ec86 363e 8948 4f3d
00000050: 8ef9 c83d 7193 0e3c 7e54 123e 7cd7 753c
00000060: 6ace 10be 8e3f 6cbd 6cc1 ed3d 5fa6 993d
00000070: 735b c03d c647 843c a07e 293e 297e f73d
00000080: d2c2 34bd 6ebc bcbb 3ee1 f33d 401a 23bd
00000090: 68b2 7f3d b37c 27bd 4bc7 7ebb 9a18 04bd
000000a0: 269d bc3d 3a2a 093d 1551 543d 37fd 223d
000000b0: 101f 46bd e571 f3bd 846d 09be 113d 02bd
000000c0: 2ae6 b4bc c06d 9abc 9dfc 5ebd 6a9c 893d
000000d0: 741d af3c 865a 75bc f7ac 883d 87a6 143c
000000e0: 5d6e cbbc 4c3b 383c 8857 a33d 0213 cfbc
000000f0: 518e 683b 97cd 0abd c8a1 6e3d de0b 29bd
00000100: 8a06 acbc 442f ff3c e9f2 67bd 9082 1ebd
00000110: 8805 033d 10d8 863d 75f4 b23d 6b92 9d3d
00000120: 49f8 03bc da69 0a3e 526b 07bd 105e bf3d
00000130: 5bdb d739 8fd5 8a3b 76b0 26be 56a4 4fbc
00000140: 0887 87bb 7665 2bbd 75b1 0fbd 0639 99bd
00000150: bcb0 f83d 58af 1a3e 8fd8 703d 5b31 45ba
00000160: ca52 9d3c 09a1 ee3d 7e15 3cbd d310 f93c
00000170: 9e3d 79bd c356 833d 2aae 823c 8e5d afbb
00000180: b0cb f53d 22ba 26bd cd8d 033e fa43 12be
00000190: aa73 443e ef8b 903d b39e 46bd 86ef 1e3e
000001a0: f3fb 303c c1bc 3b3d ad22 263c 5165 74bd
000001b0: 2e1c 53bd 6aeb c23b df2f 7b3d 1d1f fbbc
000001c0: 9832 84bc abc6 2abd 0f95 353d 69b2 a13c
000001d0: 2a53 0dbd fa44 67bd b4bb 853d c204 54bd
-0.0072656726 0.035998944 0.05287563 0.17265761 0.088387035 -0.11033654 -0.061383683 -0.040103383
-0.050498813 -0.03544237 0.06684035 0.12494232 -0.017204875 0.114509255 -0.017316181 0.050704654
-0.056342218 0.20160785 0.17824906 0.050606284 0.09813224 0.008702145 0.14290044 0.015004989
-0.1414124 -0.057677798 0.11609158 0.07502436 0.093924426 0.016147505 0.1655221 0.1208461
-0.044131108 -0.0057597673 0.11908196 -0.039819956 0.062426 -0.040890407 -0.0038876112 -0.032250024
0.09209661 0.033487536 0.05183514 0.039792266 -0.048369467 -0.11886958 -0.13420683 -0.03179652
-0.022082407 -0.018851161 -0.05444013 0.06719287 0.021376349 -0.014975196 0.066736154 0.009072906
-0.024832899 0.011244606 0.0797568 -0.025277618 0.0035485218 -0.033887472 0.058259755 -0.041271083
-0.020999212 0.031150468 -0.05662814 -0.038698733 0.031987697 0.065841794 0.08738033 0.07693943
-0.008054801 0.13516942 -0.033061333 0.09344113 0.00041171428 0.004236884 -0.16278252 -0.012673458
-0.00413597 -0.041844808 -0.035081346 -0.074815795 0.121430844 0.15105951 0.058800276 -0.0007522308
0.019204516 0.11651809 -0.045918934 0.03040353 -0.06084978 0.06413033 0.015952189 -0.0053517288
0.12001741 -0.040704854 0.12847061 -0.14283744 0.19184747 0.0705794 -0.04849119 0.15521058
0.010802257 0.045834307 0.010140103 -0.059666935 -0.051540546 0.0059484737 0.06132495 -0.030654484
-0.016137406 -0.04169337 0.044331606 0.019738393 -0.03450314 -0.056462266 0.06529942 -0.05176235

fc2.weight f4 [84, 120]
00000000: d080 db3c dbc2 883d 6563 013e e76b f53d
00000010: f20c 263e 7156 afbc bcd9 c93d 2631 a5bd
00000020: 9567 8e3d 5ba7 c1bc d302 d43c bbfe 8c3d
00000030: 090d 28bd e117 88bd 05f9 99bc 19c3 d63d
00000040: 33e5 a53d 3764 8c3d ae50 33bd 29eb f0b9
00000050: a5b4 e43d 76e6 b5bd 0f64 63bc 23ed 4dbd
00000060: 8584 6a3d fa12 81bd ca98 42bd c232 453c
00000070: 6a6c 39bd e325 48bd 0808 a5bc 3e3e 8ebd
00000080: fdc6 83bd fbd8 9a3d caf9 b7bc 2174 8cbd
00000090: 641f 5a3c 977c b9bd 518b a63d d2bf 88bd
000000a0: 9c4a a9bd 5d8d 93bb 2a63 283d 8bd7 913d
000000b0: 575b e63d 8629 debd ead9 81bd 8418 70bd
000000c0: a465 d43c 18ec 69bc 0e57 1d3e df03 18bd
000000d0: 150c 1d3c abfe a53d 8b95 d2bd b077 98bd
000000e0: ec19 06be dd79 6e3d 3fcf a53d 9a19 ab3c
000000f0: af90 24bc 661c aebd 5466 373c 902e 803d
00000100: e462 4fbd 6d7e 05be c65f 55bd 66fd ad3d
00000110: 3134 b73d 9768 e53c cbe8 6cbd f7d6 1c3d
00000120: 2577 973d 39b0 243d a808 e03b 6a5a b53d
00000130: a360 80bd aba8 f93c 81e8 84bc 0553 9b3d
00000140: ca00 a8bd bc9e 7a3d 547a 81bd f16e 823d
00000150: 0ee5 903d b9e1 00bc f4a6 96bd 37ab 5cbd
00000160: 15f4 3cbd 3f38 07bd 7fdb 21be 1453 8b3b
00000170: d963 2abe 4fca b13b d5ad aabd 980c 663c
00000180: 5b92 18bd cb2e 65bd 0214 dfbc 133f ef3c
00000190: 6e9e 32bd 6528 2abd 29c6 68bd c886 643b
000001a0: 16e2 53bc 4999 cf3d 618f 66bc 54d4 36bd
000001b0: b9ea 86bd 3581 c1bc e9d7 063d 719f 5b3b
000001c0: 8330 273d b3e7 b83d 2da8 423e 659d 593d
000001d0: 4c30 71bd e980 33bd 6248 39bd 9b4f a03d
000001e0: 4316 493d eb23 493d e500 2b3c 4123 a3bd
000001f0: f0ca 5dbc 23a1 df3d ae0a b0bc 3c99 27bd
00000200: 7357 0f3e 28ee 17bc 8fbd d0bb 1061 863d
00000210: b3cc 85bd 6761 4b3d feba b0bd 9d4a 47bd
00000220: ffe2 abbd 1d53 3b3e a091 e5bd 73b1 453d
00000230: b8f4 d1bd 95ba b63d 58aa d83d e485 593a
00000240: bd2b c63d 2432 afbd b7ac 94bc 0d84 943d
00000250: 951e f3bc d5c3 a83b 394a 76bd 9509 bcbd
00000260: e713 9f3d b22b 11be e855 cbbc 63d4 2c3d
00000270: 174f 45bd 1dd0 acbd a204 a83d d76d eabc
00000280: 0567 98bd 6650 00bd 1f49 97bd 94ae b3bc
00000290: 09bd f4bc 437f bbbc a77d 9bbd 48d2 a2bc
000002a0: 88b7 8abd 8ad3 a83d 5355 613d 18d7 7cbd
000002b0: ab8f 793d 3c9d 07bc 46f6 90bc e92a 9fbd
000002c0: 021c 5d3d d1e5 76bd 392b b5bc f411 3bbd
000002d0: 3bfb 833d e400 a2bc 5800 49ba ef79 533d
000002e0: a0c0 0bbc 00dd c2bb 7a86 743d addc b43b
000002f0: 02c9 693d 84e0 e3bb 2e33 73bc d603 b33d
00000300: e0dc 563d a1b0 0e3e 7be7 a2bd c406 95bd
00000310: 07c4 47bc b504 b8bd f67b 3abc 82bb 623a
00000320: 490f 16bc c6c1 8f3d bf2d f7bc b71d 923d
00000330: 6c52 8a3d 0f0d 08bd 865a 0b3e c471 b6bd
00000340: c8e5 483d b18e 50bd d056 583d 45f1 eebd
00000350: 172f 18bd ceda 133e 630b ba3c 529b 8d3d
00000360: a428 82bd e78b 9abd e929 c63d 75f5 45bd
00000370: 6d73 32bd f668 2fbd 0e94 b7bd df89 493d
00000380: 2063 acbd 59d0 803d b40c a7bd 628a 073e
00000390: 2b26 dc3d ce3a a1bc 07dd 87bd e961 0ebd
000003a0: 2bfc 74bc 98e4 533d e232 973d 4509 0dbd
000003b0: c021 10bd 69f3 563d b189 953b 61f6 c03d
000003c0: e046 b73d 080f 64bd fcd6 5f3d fb7c 35bd
000003d0: 7c88 b13c d170 563d 1cb8 bdbd d201 9ebd
000003e0: d499 3cbd 6b44 663c abe7 31bd 17ce a9bd
000003f0: 2dfb a7bd a6d7 ecbd ce5b 8e3d 91bc 06be
0.026794821 0.06677791 0.12635572 0.11983471 0.16215876 -0.021403523 0.09855983 -0.08066015
0.069533505 -0.023639372 0.025880253 0.068845235 -0.041028056 -0.066451795 -0.0187955 0.10486431
0.08100357 0.06855052 -0.043778114 -0.00045951575 0.11167268 -0.088818476 -0.013878836 -0.05027498
0.057255287 -0.063024476 -0.047508992 0.012036027 -0.045269407 -0.048864257 -0.020145431 -0.069454655
-0.064344384 0.07560917 -0.022457976 -0.06858087 0.013313148 -0.09056967 0.08132041 -0.06677212
-0.08266184 -0.004502936 0.041110195 0.0712119 0.112478904 -0.10847764 -0.06340392 -0.05861713
0.025927372 -0.014277481 0.1536524 -0.037113067 0.0095854 0.08105215 -0.10282429 -0.074447036
-0.13095826 0.058221687 0.0809617 0.020886231 -0.010044261 -0.0850151 0.0111938305 0.06258881
-0.05063142 -0.13036509 -0.05209329 0.084955975 0.089455016 0.028003974 -0.057839196 0.038290944
0.07395772 0.04020712 0.0068369694 0.08855136 -0.06268432 0.030475935 -0.016224148 0.07584194
-0.082032755 0.061186537 -0.0632216 0.06368817 0.07074939 -0.0078663165 -0.073560625 -0.05387422
-0.046131212 -0.033012625 -0.15806387 0.004251847 -0.16639651 0.0054257284 -0.08333937 0.0140410885
-0.03724895 -0.05595283 -0.02723122 0.02920488 -0.04360812 -0.04154243 -0.056829605 0.0034870375
-0.012932321 0.10136659 -0.01407227 -0.044636086 -0.065877385 -0.023621181 0.03292075 0.0033511783
0.04081775 0.09028568 0.19009466 0.05312862 -0.05888395 -0.04382411 -0.045235045 0.078276835
0.049093496 0.04910652 0.010437225 -0.079657085 -0.013537154 0.10919406 -0.021489467 -0.04091762
0.13998203 -0.0092730895 -0.0063702534 0.06561482 -0.06533184 0.049653437 -0.08629416 -0.04865514
-0.083929054 0.18293424 -0.112094164 0.048264932 -0.102517545 0.089223064 0.105793655 0.00082978443
0.09676311 -0.085544854 -0.018148763 0.07251749 -0.029677669 0.005150298 -0.060129378 -0.09181515
0.07767468 -0.14176825 -0.024821237 0.042194735 -0.04817113 -0.08438132 0.08204009 -0.028616829
-0.074415244 -0.031326674 -0.073869936 -0.021933831 -0.029875295 -0.022887832 -0.07592326 -0.01987566
-0.06773287 0.08243473 0.055013012 -0.061728567 0.060928028 -0.008277234 -0.017695557 -0.07771856
0.05398179 -0.060277764 -0.022115337 -0.04567142 0.06444403 -0.019775815 -0.0007667593 0.051629957
-0.008529812 -0.0059467554 0.05969856 0.0055194707 0.05707646 -0.0069542546 -0.014843745 0.08740966
0.052456737 0.13934566 -0.07954308 -0.07276681 -0.012192733 -0.08985273 -0.011382094 0.00086491567
-0.009158918 0.07019381 -0.03017318 0.07134574 0.06754002 -0.03321558 0.1360875 -0.08908418
0.04904726 -0.05091733 0.052817166 -0.11667112 -0.037154283 0.14438936 0.022710508 0.069143906
-0.06355408 -0.075462155 0.096759625 -0.04832979 -0.04356711 -0.042824708 -0.08963786 0.04920375
-0.08417344 0.06289739 -0.0815672 0.13236383 0.107494675 -0.01968136 -0.066339545 -0.034761343
-0.0149527 0.051731676 0.07382752 -0.03443267 -0.035188437 0.052478228 0.0045635332 0.09421993
0.08949065 -0.055678397 0.054648384 -0.044308644 0.021671526 0.052353684 -0.09263632 -0.07715191
-0.04604514 0.014054398 -0.043433826 -0.08291262 -0.08202205 -0.11564569 0.06951104 -0.1315787

fc2.bias f4 [84]
00000000: f984 b93d 77fb 563e fdfe 57bd 3a7f 333e
00000010: 3993 d53c 801b f9bd 24fc 163d 63b3 6b3e
00000020: dcd9 3f3e ae7e f7bd 2330 e43d a5f9 b6bc
00000030: c60e 90bd b927 c8bd ee0e 92bd c502 3a3e
00000040: 4ec2 b63e 5f3d 6bbc ae6a f4bc 72b6 ce3d
00000050: 69e0 d43c cf29 973e e386 cc3c f52d 8fbd
00000060: dc23 013e bbef 033c 6975 a5bd 8d42 bebd
00000070: ba2a 013d ef08 b1bd 9376 aa3e 2b0b 9f3d
00000080: bae2 c13d 6420 e03d 63d2 b7bd bc23 6f3d
00000090: a641 713d 00b6 753e 8b29 b0bd 30df b23d
000000a0: c1d0 4d3e 7060 ca3d eaa0 b93d 6296 e1bd
000000b0: e1df 763d 7a85 1f3c 787e 4d3e ffb4 213d
000000c0: 35d4 d53d 589c 1e3d e46e 3a3e 263c 0b3e
000000d0: c813 f7bc 0b61 313c c5be ffbd 3830 663d
000000e0: e06e 333e 9e42 f03c 7f56 01bd 335a c33e
000000f0: f1a2 cf3d b3f5 9f3e 2509 55ba 31bb 8abd
00000100: c2c0 5dbc dccb 823e 9f62 133e 4031 cb3d
00000110: d563 94bd 5890 64bd 73be 273e e4ae 453c
00000120: 6aa9 78bd 2fea b1bd 5dea 88bd a342 95bd
00000130: 59f3 103e bb8e 053e 34fd 8d3d b354 b93e
00000140: 0ee6 28bd a980 afbd 799f b2bd 0cb6 843e
0.09058566 0.20994364 -0.05273341 0.17529002 0.026071178 -0.12163448 0.036861554 0.2301765
0.1873545 -0.12084709 0.11141994 -0.022335837 -0.07034068 -0.097732015 -0.07131754 0.18165119
0.35695118 -0.014357894 -0.029836025 0.100933924 0.025985913 0.29524085 0.024966663 -0.069911875
0.12611336 0.008052762 -0.08079035 -0.09290037 0.031534888 -0.08644282 0.3329359 0.07765802
0.09467073 0.10943678 -0.08975675 0.05838369 0.058900498 0.23995209 -0.08601674 0.08733976
0.20099165 0.09881675 0.09063895 -0.11015011 0.0602721 0.009736413 0.20067775 0.039479252
0.10440866 0.03872332 0.18206364 0.13597164 -0.0301608 0.0108263595 -0.12487558 0.05619833
0.17522764 0.02932864 -0.03157663 0.38154754 0.101385005 0.3124214 -0.0008126668 -0.06773985
-0.013534727 0.25546157 0.1439309 0.09921503 -0.07245604 -0.05580172 0.16381244 0.012065623
-0.06070844 -0.08687245 -0.06685326 -0.072881006 0.1415533 0.13042729 0.0693306 0.36197433
-0.041235022 -0.08569462 -0.08721823 0.2592014

fc3.weight f4 [10, 84]
00000000: bb0c 943e b52f 02be e90c 5c3c 60a4 22bd
00000010: 8765 d7bc c36f 5bbd c9bc ec3d d041 893e
00000020: 8832 b43c 317b 343d 4d0b c93d b66b 983d
00000030: 998f 0d3e 1032 053e cf10 29bd d56a d4bd
00000040: ff44 23be 19cb 25be 781a e43c 6d6e 15be
00000050: 1f75 47bc 34bb 3cbe 7efd a03d f815 1a3d
00000060: 9655 55be 7ca1 463e 734a ea3d 8009 c9bc
00000070: 3ec9 1d3e 7135 253c 56a0 6bbe 6156 0fbe
00000080: 5ab0 f4bc 9c6e 3bbd 32cb cc3d 3061 0d3e
00000090: e4e3 183d cbae 42bc b034 03bd 67f4 af3c
000000a0: 7a9d 86bd e1b6 59bd a282 17bd c489 60bd
000000b0: 6a52 dabd 941a 1c3e bd3d 853d 6f80 34bd
000000c0: c29b 16be 6a78 903d d876 a0bd 9fc6 1abe
000000d0: ccbc dabd 66a0 ce3c 69e3 983c eac6 69bd
000000e0: b9eb 07be a258 c63d 8998 553e cb2b 753e
000000f0: efa9 473d a966 81be 21db bfbd 7037 533e
00000100: 4743 7f3d 00a2 223e ae83 1d3e 9801 4a3d
00000110: 66fb 04bd 2fac 6e3d 9aa9 f23d 9577 9c3d
00000120: 8d26 be3d a72a 153e 7ada 22be 6f55 51bd
00000130: b61d 81be de84 383e bad7 7fbd 2fcc 563e
00000140: dc07 58bd de5f 0dbe 1037 343d 12a7 2bbe
00000150: 6431 fcbd c60d f2bc 1cd3 243e c056 13be
00000160: ab66 0cbd 2e2e 2fbe 11ba a4bd e33b d53d
00000170: f8e9 aa3d 76c3 17bd f01d 08be 74ec d4bc
00000180: 3d13 ad3d 55f8 263e a074 bbbd 0bec 6ebe
00000190: 2745 20be 9a65 513e 8e36 c7bd 122c a4bd
000001a0: c31b d43d 9da5 94bd 1a96 a93d 06b3 adbd
000001b0: 1b88 743d 5e65 01be 5cdc 81bd b556 3f3d
000001c0: b5e9 383d 1579 cfbd a308 1cbe 7c3f 81bd
000001d0: 7101 51be 003d c6bd c48a 013d 68a4 b73e
000001e0: a7c1 cd3c 250d aabd ea2e 413d 6aff a5bd
000001f0: 72f0 dabd f914 223d 183a 1d3e 1bd3 223e
00000200: 058d a73d 3f99 cabb e496 973c 21e2 7bbd
00000210: 79c4 8a3e 828d c33d 6d9f 8ebe b269 e43c
00000220: 378b 06bc b876 df3d 64df a73d 2d6c 903e
00000230: 4455 3abe 7ca6 34be 4513 ec3e e2f6 77be
00000240: 8ece eabd 0229 88be fc19 9ebd 7670 d2bd
00000250: 397b 59bd feb9 103e f00d 9b3d b21d 6fbe
00000260: 4b01 873d 8d83 953b 70a0 60be ac8f 9dbd
00000270: 6e1d d73c 3316 20bd f14d b9bc d760 4abd
00000280: 930a 62bd 9eee 11be 74f7 ccbd 9bb8 3bbe
00000290: 0982 d53d 4491 993e 93dc 62bd cd7e 7abe
000002a0: 5809 043e 0783 ff3c 8dfa 5bbe c549 c33d
000002b0: ad6d 0dbd 2a9e a13c 4168 20be fc61 9bbd
000002c0: af8b fcbc 50ae 35be 7da6 263c e5a0 8abd
000002d0: a1f2 cc3d d9ff 1fbd 2133 2c3a 8fbb 453e
000002e0: 4dc2 413e 43a2 873d c751 7e3b eb8b 08bd
000002f0: 52cf 293e 33c0 133e f17d a33d c846 483d
00000300: 4bbb 903d ce3d aabc ce85 7abc 60b8 5b3e
00000310: ff88 323e ac03 6fbd 3ced 003e 7a08 d33d
00000320: f403 14be d157 a33d f5df 26bd 858f 24be
00000330: 7592 bf3c 051f 923d e198 c03d 3ba8 a13d
00000340: 53f3 96bd 4440 b53d 1bcd 07be 199e 12be
00000350: 35d4 693d b94f 173e 0ad2 82bc 007b b93d
00000360: 5c64 4ebe 8ca0 8a3e 48f1 6c3e 0422 4cbe
00000370: 3071 253e 86d3 c03c 1ac1 95bd 436a 5abd
00000380: 2e5f 893e 7d2e e33d b9bc fa3a c1ad 383e
00000390: 80af 0cbd e555 5e3c fd93 eabd ab7b d43d
000003a0: 722c 483d 5f74 46be e132 44bb 7123 88bd
000003b0: 9ff6 acbd e25d c4bd 98df f63d c117 ebbd
000003c0: a9e6 1abd 2375 3b3c 8db8 9d3d e608 6a3c
000003d0: 8b3d 27bd 85b6 a13c f634 9ebd 5c67 3f3e
000003e0: 55c7 b3bd 5ee1 83bd 9183 7a3e 8bba 6bbd
000003f0: dd39 a23d f2d0 193e 254e d5bd 475a 76bc
0.28915963 -0.12713511 0.013430812 -0.03970754 -0.02629353 -0.05357338 0.115594454 0.26808023
0.021996751 0.044062797 0.098166086 0.07442419 0.1382431 0.13007379 -0.041275796 -0.10371939
-0.15944289 -0.16190757 0.027844653 -0.14592905 -0.01217392 -0.18430787 0.0786085 0.037618607
-0.2083343 0.19397539 0.11439981 -0.024540663 0.15408799 0.010083542 -0.23010382 -0.13997795
-0.029869247 -0.045759782 0.09999694 0.13806605 0.03732671 -0.011882494 -0.03203267 0.021478845
-0.06573005 -0.053152923 -0.036989816 -0.054818884 -0.106602505 0.15244514 0.06505916 -0.044067796
-0.14707854 0.07054217 -0.07835168 -0.1511483 -0.106805414 0.025222968 0.018663125 -0.057074465
-0.13273515 0.09684874 0.20858969 0.23942487 0.048746046 -0.25273636 -0.093679674 0.20626616
0.06232002 0.1588211 0.15382263 0.049317926 -0.032466315 0.058269676 0.11848755 0.07639996
0.09284697 0.14567052 -0.15903655 -0.051106866 -0.2521798 0.18019435 -0.062461592 0.20976327
-0.05274187 -0.13806102 0.043997824 -0.16762951 -0.12314108 -0.029547583 0.16096157 -0.14388561
-0.0342776 -0.1710746 -0.08043302 0.10411813 0.08345407 -0.03705164 -0.1329267 -0.025991656
0.08450935 0.16305669 -0.09153104 -0.23332231 -0.1565138 0.20448914 -0.09727202 -0.08016218
0.10356858 -0.07258151 0.08280583 -0.08481412 0.059700113 -0.12636325 -0.06340858 0.04671355
0.045144755 -0.101305164 -0.1523767 -0.06310937 -0.20410706 -0.096796036 0.031626478 0.3586762
0.025116755 -0.08303288 0.04716388 -0.08105357 -0.106903926 0.039570782 0.15354192 0.15900843
0.08181194 -0.006182819 0.018504567 -0.06149495 0.27103022 0.09548475 -0.27856007 0.02788243
-0.008211902 0.10911316 0.08196905 0.28207532 -0.18196589 -0.17641634 0.4610845 -0.24215272
-0.114651784 -0.26593786 -0.077198 -0.102753565 -0.05309603 0.1413345 0.07571018 -0.23351172
0.065920435 0.004562801 -0.21936202 -0.07693419 0.02625915 -0.03908367 -0.022620173 -0.04940876
-0.055185866 -0.14251181 -0.100081354 -0.1833214 0.10425193 0.2999364 -0.055386137 -0.24462433
0.1289419 0.031190408 -0.21482296 0.09535555 -0.034528423 0.019728739 -0.1566477 -0.075870484
-0.030828325 -0.17742276 0.01017153 -0.067689694 0.10007215 -0.039062355 0.0006568898 0.19309829
0.18921776 0.06622746 0.0038806067 -0.03333656 0.16582993 0.14428787 0.07983006 0.048895627
0.07066973 -0.020781424 -0.015290691 0.21457052 0.17435072 -0.05835311 0.12590498 0.10304351
-0.14454633 0.07975734 -0.040740926 -0.16070373 0.023385266 0.07134823 0.09404159 0.078934155
-0.07370629 0.08850148 -0.13261835 -0.14318122 0.057087142 0.14776506 -0.015969295 0.090566635
-0.20155472 0.27075613 0.23138916 -0.19934851 0.16156459 0.023538362 -0.07312222 -0.053323995
0.2683043 0.11092851 0.001912973 0.18035032 -0.034347057 0.013570284 -0.11454008 0.1037515
0.04887051 -0.1938033 -0.0029937553 -0.06647385 -0.08445477 -0.09588219 0.12054366 -0.1147914
-0.03781763 0.011441502 0.07701216 0.014284348 -0.040830176 0.019740352 -0.07724945 0.18691772
-0.08778254 -0.0643947 0.24464251 -0.057550948 0.07921193 0.15021113 -0.104152955 -0.015036172

fc3.bias f4 [10]
00000000: cdaf ffbd 653c eebe 1aa2 9d3d 10b2 5c3e
00000010: ac71 0b3f 3d93 93bd 0346 0b3e 9daa a9be
00000020: 1a19 053f d754 9bbe
-0.12484703 -0.46530452 0.07696934 0.215523 0.54470325 -0.07205818 0.13600926 -0.3313798
0.51991427 -0.30338165
